…
[0m] INFO: Use default value for search.algorithm.gradient.compute-bound-order: ['PARALLEL', 'PIPELINE']
[0m] INFO: Use default value for search.algorithm.gradient.memory-bound-order: ['INTERFACE', 'CACHE', 'PIPELINE', 'TILE', 'TILING']
[0m] INFO: Design space contains 45 valid design points
[0m] INFO: Finished design space compilation
/home/s40/cs259-final-project/HARP/models/v21/regression_pragma_as_MLP_2l-m-2l-p_model_state_dict.pth
Net(
  (conv_first): TransformerConv(153, 64, heads=1)
  (conv_layers): ModuleList(
    (0-5): 6 x TransformerConv(64, 64, heads=1)
  )
  (jkn): JumpingKnowledge(max)
  (loss_function): MSELoss()
  (gate_nn_P): Sequential(
    (0): Linear(in_features=64, out_features=64, bias=True)
    (1): ReLU()
    (2): Linear(in_features=64, out_features=1, bias=True)
  )
  (glob_P): MyGlobalAttention(gate_nn=Sequential(
    (0): Linear(in_features=64, out_features=64, bias=True)
    (1): ReLU()
    (2): Linear(in_features=64, out_features=1, bias=True)
  ), nn=None)
  (gate_nn_pseudo_B): Sequential(
    (0): Linear(in_features=64, out_features=64, bias=True)
    (1): ReLU()
    (2): Linear(in_features=64, out_features=1, bias=True)
  )
  (glob_pseudo_B): MyGlobalAttention(gate_nn=Sequential(
    (0): Linear(in_features=64, out_features=64, bias=True)
    (1): ReLU()
    (2): Linear(in_features=64, out_features=1, bias=True)
  ), nn=None)
  (MLPs): MLP_multi_objective(
    (activation): ELU(alpha=1.0)
    (layers_common): ModuleList()
    (MLP_heads): ModuleDict(
      (perf): ModuleList(
        (0): Linear(in_features=128, out_features=32, bias=True)
        (1): Linear(in_features=32, out_features=16, bias=True)
        (2): Linear(in_features=16, out_features=8, bias=True)
        (3): Linear(in_features=8, out_features=1, bias=True)
      )
      (util-LUT): ModuleList(
        (0): Linear(in_features=128, out_features=32, bias=True)
        (1): Linear(in_features=32, out_features=16, bias=True)
        (2): Linear(in_features=16, out_features=8, bias=True)
        (3): Linear(in_features=8, out_features=1, bias=True)
      )
      (util-FF): ModuleList(
        (0): Linear(in_features=128, out_features=32, bias=True)
        (1): Linear(in_features=32, out_features=16, bias=True)
        (2): Linear(in_features=16, out_features=8, bias=True)
        (3): Linear(in_features=8, out_features=1, bias=True)
      )
      (util-DSP): ModuleList(
        (0): Linear(in_features=128, out_features=32, bias=True)
        (1): Linear(in_features=32, out_features=16, bias=True)
        (2): Linear(in_features=16, out_features=8, bias=True)
        (3): Linear(in_features=8, out_features=1, bias=True)
      )
      (util-BRAM): ModuleList(
        (0): Linear(in_features=128, out_features=32, bias=True)
        (1): Linear(in_features=32, out_features=16, bias=True)
        (2): Linear(in_features=16, out_features=8, bias=True)
        (3): Linear(in_features=8, out_features=1, bias=True)
      )
    )
  )
  (MLPs_per_pragma): ModuleDict(
    (tile): MLP(
      (activation): ELU(alpha=1.0)
      (layers): ModuleList(
        (0): Linear(in_features=65, out_features=32, bias=True)
        (1): Linear(in_features=32, out_features=64, bias=True)
      )
    )
    (pipeline): MLP(
      (activation): ELU(alpha=1.0)
      (layers): ModuleList(
        (0): Linear(in_features=65, out_features=32, bias=True)
        (1): Linear(in_features=32, out_features=64, bias=True)
      )
    )
    (parallel): MLP(
      (activation): ELU(alpha=1.0)
      (layers): ModuleList(
        (0): Linear(in_features=66, out_features=33, bias=True)
        (1): Linear(in_features=33, out_features=64, bias=True)
      )
    )
    (merge): MLP(
      (activation): ELU(alpha=1.0)
      (layers): ModuleList(
        (0): Linear(in_features=192, out_features=96, bias=True)
        (1): Linear(in_features=96, out_features=64, bias=True)
      )
    )
  )
)

[0m] INFO: loaded /home/s40/cs259-final-project/HARP/models/v21/regression_pragma_as_MLP_2l-m-2l-p_model_state_dict.pth
Loaded from /home/s40/cs259-final-project/HARP/models/encoders/pragma_as_MLP-encoders.klepto
['/home/s40/cs259-final-project/HARP/dse_database/generated_graphs/machsuite/processed/extended-pseudo-block-connected-hierarchy/aes_processed_result.gexf']
…
